…
wandb: Using wandb-core as the SDK backend.  Please refer to https://wandb.me/wandb-core for more information.
wandb: Tracking run with wandb version 0.19.5
wandb: Run data is saved locally in /content/yolov5/wandb/run-20250203_130818-cn2c4w3d
wandb: Run `wandb offline` to turn off syncing.
wandb: Syncing run resilient-lake-9
wandb: ⭐️ View project at https://wandb.ai/david-sokola-sokola/YOLOv5
wandb: 🚀 View run at https://wandb.ai/david-sokola-sokola/YOLOv5/runs/cn2c4w3d
Overriding model.yaml nc=80 with nc=4

                 from  n    params  module                                  arguments                     
  0                -1  1      1760  models.common.Conv                      [3, 16, 6, 2, 2]              
  1                -1  1      4672  models.common.Conv                      [16, 32, 3, 2]                
  2                -1  1      4800  models.common.C3                        [32, 32, 1]                   
  3                -1  1     18560  models.common.Conv                      [32, 64, 3, 2]                
  4                -1  2     29184  models.common.C3                        [64, 64, 2]                   
  5                -1  1     73984  models.common.Conv                      [64, 128, 3, 2]               
  6                -1  3    156928  models.common.C3                        [128, 128, 3]                 
  7                -1  1    295424  models.common.Conv                      [128, 256, 3, 2]              
  8                -1  1    296448  models.common.C3                        [256, 256, 1]                 
  9                -1  1    164608  models.common.SPPF                      [256, 256, 5]                 
 10                -1  1     33024  models.common.Conv                      [256, 128, 1, 1]              
 11                -1  1         0  torch.nn.modules.upsampling.Upsample    [None, 2, 'nearest']          
 12           [-1, 6]  1         0  models.common.Concat                    [1]                           
 13                -1  1     90880  models.common.C3                        [256, 128, 1, False]          
 14                -1  1      8320  models.common.Conv                      [128, 64, 1, 1]               
 15                -1  1         0  torch.nn.modules.upsampling.Upsample    [None, 2, 'nearest']          
 16           [-1, 4]  1         0  models.common.Concat                    [1]                           
 17                -1  1     22912  models.common.C3                        [128, 64, 1, False]           
 18                -1  1     36992  models.common.Conv                      [64, 64, 3, 2]                
 19          [-1, 14]  1         0  models.common.Concat                    [1]                           
 20                -1  1     74496  models.common.C3                        [128, 128, 1, False]          
 21                -1  1    147712  models.common.Conv                      [128, 128, 3, 2]              
 22          [-1, 10]  1         0  models.common.Concat                    [1]                           
 23                -1  1    296448  models.common.C3                        [256, 256, 1, False]          
 24      [17, 20, 23]  1     12177  models.yolo.Detect                      [4, [[10, 13, 16, 30, 33, 23], [30, 61, 62, 45, 59, 119], [116, 90, 156, 198, 373, 326]], [64, 128, 256]]
Model summary: 214 layers, 1769329 parameters, 1769329 gradients, 4.2 GFLOPs

Transferred 343/349 items from yolov5n.pt
optimizer: SGD(lr=0.01) with parameter groups 57 weight(decay=0.0), 60 weight(decay=0.0005), 60 bias
…
